…
rs\negis\AppData\Local\Programs\Python\Python36\python.exe C:/Projects/ppm/main_api.py
Loading data from config file...
Config file loaded
Loading staff ids...
Staff id loaded
Loading face model...
2018-12-17 15:54:54.371657: I tensorflow/core/platform/cpu_feature_guard.cc:141] Your CPU supports instructions that this TensorFlow binary was not compiled to use: AVX2
face model loaded
Loading gesture model...
 Try to load cfg: ./gesture/model/yolov3-tiny_3.cfg, weights: ./gesture/model/yolov3-tiny_3_33000.weights, clear = 0
layer     filters    size              input                output
   0 conv     16  3 x 3 / 1   416 x 416 x   3   ->   416 x 416 x  16 0.150 BF
   1 max          2 x 2 / 2   416 x 416 x  16   ->   208 x 208 x  16 0.003 BF
   2 conv     32  3 x 3 / 1   208 x 208 x  16   ->   208 x 208 x  32 0.399 BF
   3 max          2 x 2 / 2   208 x 208 x  32   ->   104 x 104 x  32 0.001 BF
   4 conv     64  3 x 3 / 1   104 x 104 x  32   ->   104 x 104 x  64 0.399 BF
   5 max          2 x 2 / 2   104 x 104 x  64   ->    52 x  52 x  64 0.001 BF
   6 conv    128  3 x 3 / 1    52 x  52 x  64   ->    52 x  52 x 128 0.399 BF
   7 max          2 x 2 / 2    52 x  52 x 128   ->    26 x  26 x 128 0.000 BF
   8 conv    256  3 x 3 / 1    26 x  26 x 128   ->    26 x  26 x 256 0.399 BF
   9 max          2 x 2 / 2    26 x  26 x 256   ->    13 x  13 x 256 0.000 BF
  10 conv    512  3 x 3 / 1    13 x  13 x 256   ->    13 x  13 x 512 0.399 BF
  11 max          2 x 2 / 1    13 x  13 x 512   ->    13 x  13 x 512 0.000 BF
  12 conv   1024  3 x 3 / 1    13 x  13 x 512   ->    13 x  13 x1024 1.595 BF
  13 conv    256  1 x 1 / 1    13 x  13 x1024   ->    13 x  13 x 256 0.089 BF
  14 conv    512  3 x 3 / 1    13 x  13 x 256   ->    13 x  13 x 512 0.399 BF
  15 conv     21  1 x 1 / 1    13 x  13 x 512   ->    13 x  13 x  21 0.004 BF
  16 yolo
  17 route  13
  18 conv    128  1 x 1 / 1    13 x  13 x 256   ->    13 x  13 x 128 0.011 BF
  19 upsample            2x    13 x  13 x 128   ->    26 x  26 x 128
  20 route  19 8
  21 conv    256  3 x 3 / 1    26 x  26 x 384   ->    26 x  26 x 256 1.196 BF
  22 conv     21  1 x 1 / 1    26 x  26 x 256   ->    26 x  26 x  21 0.007 BF
  23 yolo
Total BFLOPS 5.449

 seen 64
Loading weights from ./gesture/model/yolov3-tiny_3_33000.weights...Done!
No names or labels found
classes: Using default '2'
Loaded - names_list: (null), classes = 2
gesture model loaded
rfid flag 1
Return 0
Return 0
Return 0
Return 0
Return 1
azure confidence: [0.0]
Matching names: ['587c432a-0f2a-4561-a6a1-4c16c14d41b8']
…
